MyReactNativeApp/src/assets/emnist_cnn_model.tflite (tflite, 238672 bytes, 8 tensors)

arith.constant f4 [32]
0	0xbeaa244b	-0.33230814
1	0x3cbfdd9b	0.0234211
2	0x3da4b9e2	0.08043267
3	0xbe426698	-0.18984449
4	0x3c394e57	0.011310182
5	0xbeed7171	-0.4637561
6	0x3afb724b	0.0019183842
7	0xbd1a38d7	-0.037651863
8	0xbe2e1e21	-0.17003681
9	0xbb5ab3e6	-0.0033371388
10	0xbce77497	-0.028253837
11	0xbc1c4be1	-0.009539575
12	0xbf18423e	-0.5947608
13	0x3ba4db39	0.005031016
14	0xbc60ee6f	-0.013728722
15	0xbe62663d	-0.22109313
16	0xbc9dccaa	-0.01926263
17	0xbe521b5a	-0.20518246
18	0xbdcfe7a6	-0.10151605
19	0xbe2a717a	-0.1664485
20	0x3b1b1067	0.00236609
21	0xbda27409	-0.07932288
22	0xbe809d11	-0.25119832
23	0xbf078db1	-0.5295058
24	0xbdf25915	-0.11833397
25	0xbdf0acbf	-0.11751699
26	0xbcf7341b	-0.030176213
27	0xbe55ee3b	-0.20891659
28	0xbebdbfbe	-0.3706035
29	0xbc223d9d	-0.009902385
30	0xbdee900a	-0.11648567
31	0x3c4226b9	0.0118500525

arith.constant1 f4 [32, 3, 3, 1]
0	0x3dccc299	0.09998054
1	0xbe4693bf	-0.19392298
2	0xbe05ce2e	-0.13066933
3	0x3e8a0676	0.26958054
4	0x3eaa2af5	0.332359
5	0x3ddf6840	0.10908556
6	0xbe8bfbe5	-0.27340618
7	0xbe81e238	-0.25367904
8	0x3eba7720	0.3641901
9	0x3e1266a8	0.14296973
10	0x3e2b5e0c	0.16735095
11	0xba6d9723	-0.00090633536
12	0x3e71dce6	0.23619422
13	0xbd112442	-0.03543497
14	0xbe687162	-0.22699502
15	0xbfb5d37a	-1.4205163
16	0xbffbd77d	-1.9675137
17	0xbf84b2f7	-1.0367116
18	0xc0195d03	-2.396302
19	0xbfe933cd	-1.8218933
20	0xbfdcd6de	-1.7253072
21	0xbf6edbbf	-0.93304056
22	0x3e6b21ee	0.22962162
23	0xbe3a5441	-0.18196203
24	0x3e6b08ed	0.22952624
25	0x3e05aa9d	0.13053365
26	0xbe4a80cc	-0.19775695
27	0x3d426e63	0.047468554
28	0x3e29bb31	0.16575314
29	0xbd1828f6	-0.03714844
30	0x3edeafdd	0.43493548
31	0xbf4186d3	-0.7559635
32	0x3dc0d120	0.094148874
33	0xbea5d3a4	-0.3238803
34	0x3eda79ba	0.42670995
35	0x3ddb8b52	0.107199326
36	0x3cc7670d	0.02434113
37	0xbb43ef46	-0.0029897257
38	0x3e6181aa	0.22022119
39	0xbe8e4387	-0.27785894
40	0x3e41097c	0.18851274
41	0x3d2922bf	0.041292902
42	0xbfb0c0fb	-1.3808893
43	0xbe809827	-0.25116083
44	0xbeb84d27	-0.35996363
45	0xbea419d7	-0.32050964
46	0x3e8b620c	0.2722324
47	0x3d162b73	0.03666253
48	0xbbbd8ae7	-0.0057843807
49	0x3ef6679c	0.48125923
50	0xbe255230	-0.16144633
51	0x3c01de7b	0.007926579
52	0x3eb48093	0.35254344
53	0xbe8f7ede	-0.2802648
54	0xbd5bd9f9	-0.05367467
55	0x3dc22e45	0.094814815
56	0x3d4bc043	0.049743902
57	0xbe3d0a6d	-0.18461008
58	0xbecb2722	-0.39678293
59	0x3eddd720	0.4332819
60	0x3eb3308e	0.34997982
61	0xbf668cd9	-0.90058666
62	0xbea060aa	-0.3132375
63	0xc0853f62	-4.163987
64	0xbe100bcd	-0.14067002
65	0xbd161c32	-0.036647983
66	0xc0642729	-3.5648901
67	0x3ea25b87	0.31710455
68	0x3e479e29	0.19493927
69	0x3e2dbb5e	0.16966006
70	0xbd1efce0	-0.03881538
71	0xba657568	-0.00087531516
72	0x3eaf5915	0.34247652
73	0xbd846533	-0.06464615
74	0xbc02a8ce	-0.0079748165
75	0xbe477d04	-0.19481283
76	0xbe479089	-0.1948873
77	0x3e163e2b	0.14672153
78	0x3e7d54cf	0.24739383
79	0x3ddbfa95	0.10741154
80	0xbd2c6124	-0.042084828
81	0xbdf58710	-0.11988652
82	0xbf0a0cc0	-0.53925705
83	0xbf930efb	-1.1488947
84	0x3e448799	0.19192351
85	0x3ea609b1	0.3242927
86	0xbee66087	-0.4499552
87	0xbb3938bf	-0.0028262583
88	0x3e23b13e	0.15985581
89	0xbe0a36b6	-0.13497433
90	0x3d02be6a	0.031919874
91	0x3e191878	0.1495074
92	0x3e67f5fb	0.22652428
93	0xbe07728f	-0.13227294
94	0xbe025a05	-0.12729652
95	0xbdce6cc8	-0.10079342
96	0xbc858298	-0.016297624
97	0xbe184c49	-0.1487285
98	0x3d4c2230	0.04983729
99	0xbe7b0aa1	-0.24515773
100	0xbf07b70d	-0.5301369
101	0xbf87ffea	-1.0624974
102	0xbd96f0ac	-0.07370123
103	0x3dab6357	0.08368557
104	0xbda26eae	-0.07931267
105	0x3e10fb31	0.14158322
106	0x3e00feb7	0.12597166
107	0x3d8964a5	0.067086495
108	0xbcd9e7d6	-0.026599806
109	0x3e81907d	0.25305548
110	0xbe42ac75	-0.190111
111	0x3e85898c	0.26081502
112	0x3e40b092	0.18817356
113	0x3e5f0777	0.21780191
114	0xbe60f2ed	-0.21967669
115	0x3e95238f	0.29128692
116	0xbd85d5ab	-0.065348946
117	0xbe9f5e94	-0.31126845
118	0x3e1723b9	0.14759721
119	0x3e699186	0.22809419
120	0x3959e70c	0.00020780804
121	0xbee1a4a3	-0.4407092
122	0xbde4f57a	-0.111796334
123	0x3e346ff3	0.1762083
124	0x3e0c259e	0.13686225
125	0xbe879b73	-0.26485786
126	0x3ecdfe12	0.40232903
127	0xbe82818b	-0.25489458
128	0xbf80d1a1	-1.0063974
129	0xbdb8e69c	-0.0902836
130	0xbffe66b6	-1.9875095
131	0x3dabc0a1	0.083863504
132	0xbedb1c0d	-0.4279484
133	0x3d556647	0.052099492
134	0x3e818931	0.2529998
135	0xbe624f5d	-0.22100587
136	0x3ec348ec	0.38141572
137	0x3ec59e23	0.3859721
138	0x3eb62618	0.35575938
139	0xbf2ff23b	-0.6872899
140	0xbf1f66bc	-0.62266135
141	0xbe07f3a8	-0.13276541
142	0x3e9cfeec	0.3066324
143	0x3ece4b05	0.4029161
144	0x3e3d30ec	0.18475693
145	0x3d776e20	0.060407758
146	0xbd78dc9a	-0.060757257
147	0xc002b233	-2.0421264
148	0x3f0b3c8e	0.54389274
149	0xbd911310	-0.07083714
150	0x3ead0f09	0.33800533
151	0xbd39cee2	-0.045363314
152	0xbd2474e1	-0.040150527
153	0xbe097a15	-0.13425477
154	0x3e48a581	0.19594385
155	0xbd25fba6	-0.040523194
156	0x3ec38a07	0.38191244
157	0xbef8d9b8	-0.48603606
158	0x3d1e8ed0	0.038710415
159	0x3ec5b806	0.3861696
160	0xbfaf1896	-1.3679378
161	0x3f20d4d8	0.62824774
162	0xbe38b851	-0.18039061
163	0x3de8fbe8	0.11376172
164	0x3e2523f4	0.16126996
165	0x3ea00c73	0.31259498
166	0x3dd18252	0.10229935
167	0xbc1a02fc	-0.009400126
168	0xbd0d634b	-0.03451852
169	0xbe8254d2	-0.25455338
170	0xbe24026d	-0.1601655
171	0xbe5bcf4c	-0.21465796
172	0x3ebc8015	0.3681647
173	0xbe5cba71	-0.21555497
174	0x3e0c8f6a	0.13726583
175	0xbee2ff8f	-0.443356
176	0x3e928209	0.28614834
177	0x3ec815f0	0.39079237
178	0xbec09487	-0.37613317
179	0x3e8ec820	0.27887058
180	0x3bae21aa	0.0053140717
181	0xbe1fb506	-0.15596399
182	0xbee27426	-0.4422924
183	0x3e48a0b9	0.19592561
184	0x3c0f7b2a	0.008757392
185	0xbfe75fc1	-1.8076097
186	0x3e5de447	0.21669112
187	0xbe2d5e92	-0.16930607
188	0xbe9fdaf2	-0.3122173
189	0x3c4643fe	0.012101172
190	0xbe12d370	-0.1433847
191	0xbe5db9c7	-0.216529
192	0xbe25b3b3	-0.16181831
193	0x3db919db	0.09038135
194	0x3e19de5d	0.15026231
195	0x3e1a9098	0.1509422
196	0x3e082c68	0.1329819
197	0xb7a8a370	-2.0103267e-05
198	0x3e9fdbff	0.3122253
199	0x3e6f0ef3	0.23345546
200	0x3d66ff01	0.056395534
201	0xbe7a0078	-0.24414241
202	0xbf1171da	-0.5681435
203	0xbe934bf9	-0.287689
204	0x3e8bdbe4	0.273162
205	0x3e68b9ca	0.22727123
206	0x3e18f20a	0.1493608
207	0xbdc384d7	-0.095468216
208	0x3de0f2ad	0.10983787
209	0x3e1012a2	0.14069608
210	0x3dd80a04	0.10548785
211	0xbd726c63	-0.059185397
212	0x3e88280e	0.2659306
213	0x3e1a9600	0.15096283
214	0xbde32948	-0.11091858
215	0x3e370efb	0.17876808
216	0x3e04fea4	0.12987763
217	0xbe560a9e	-0.20902488
218	0xbe98648b	-0.29764208
219	0xbea7cee2	-0.32775027
220	0xbe827a5e	-0.25483984
221	0x3e6c3fde	0.23071238
222	0xbe16ea53	-0.14737825
223	0x3e6054a0	0.21907282
224	0x3e904cb9	0.28183535
225	0x3c984e73	0.018592095
226	0x3e00b713	0.12569837
227	0x3cb0426e	0.021516051
228	0xbe411ca3	-0.1885858
229	0xbdc34c6b	-0.0953606
230	0x3d135b72	0.03597588
231	0xbd22bac3	-0.03972889
232	0x3e4115d5	0.18855985
233	0x3d85fbd6	0.065421745
234	0x3d6e91a9	0.05824438
235	0xbe441bc2	-0.19151214
236	0xbe5b92f4	-0.21442777
237	0xbd50ac7a	-0.050945736
238	0x3ec2a054	0.38012946
239	0x3ed82b9c	0.4222077
240	0x3bbc797c	0.0057517868
241	0xbe98baa1	-0.29829887
242	0xbe730d98	-0.23735654
243	0x3e18d282	0.14924052
244	0x3cb631cc	0.022240542
245	0x3da3adea	0.07992156
246	0xbddc3b46	-0.10753493
247	0xbd783c6c	-0.060604498
248	0x3dbe110b	0.092805944
249	0xbe96cb7a	-0.29452115
250	0xbc2bed49	-0.010493585
251	0x3e901f01	0.28148654
252	0xbd53d617	-0.051717844
253	0x3e88cd72	0.26719242
254	0x3e0ba3b9	0.13636674
255	0x3e9321a9	0.28736618

arith.constant5 f4 [128]
0	0xbd22d792	-0.039756365
1	0xbe02ee68	-0.12786257
2	0x3c6f9abd	0.014624295
3	0x3e4aa0e0	0.19787931
4	0xbc513a0e	-0.012770189
5	0xbe7d3497	-0.24727093
6	0xbdc17fe1	-0.09448219
7	0xbe28eeca	-0.16497341
8	0xbe02a8d1	-0.12759711
9	0x3d96b3aa	0.07358487
10	0x3deb2c44	0.114830524
11	0xbe8819a8	-0.26582074
12	0xbd99e9db	-0.075153075
13	0xbe21f3bd	-0.15815635
14	0xbc4eb2aa	-0.012615839
15	0x3e528f29	0.20562424
16	0xbc9e05bf	-0.01928985
17	0xbe4c37b0	-0.19943118
18	0x3e3f280c	0.1866762
19	0xbd1b4aa2	-0.037912972
20	0xbdf086c1	-0.11744452
21	0x3e0e9af6	0.139263
22	0x3e13371a	0.14376488
23	0xbe57a710	-0.21059823
24	0x3e745ede	0.23864314
25	0xbcc9f4f2	-0.024652932
26	0xbe2c6fac	-0.16839474
27	0xbe5adc0b	-0.21373002
28	0x3d204436	0.03912755
29	0x3c35ae50	0.011088923
30	0xbdd35701	-0.10319329
31	0xbce0c3ab	-0.027437052
32	0xbc674a60	-0.0141168535
33	0xbc9bd061	-0.019020261
34	0xbca8707f	-0.020561455
35	0x3e09f66b	0.13472907
36	0xbd5007f3	-0.05078883
37	0xbe6d3e86	-0.23168382
38	0x3cc5ca49	0.024144309
39	0xbd903957	-0.07042187
40	0xbd0951b0	-0.03352517
41	0xbd6bbee5	-0.057555098
42	0xbd00e9bb	-0.031472903
43	0x3dec2984	0.11531356
44	0xbcc9a334	-0.024613954
45	0x3e69a187	0.22815524
46	0xbe00ea89	-0.12589468
47	0xbd683961	-0.056695346
48	0xbb4ded8a	-0.0031422102
49	0x3e467108	0.19379056
50	0x3ecfc27c	0.40578067
51	0xbe7c2238	-0.24622428
52	0xbe2e8667	-0.17043458
53	0x3e4627c4	0.19351107
54	0xbdb70e55	-0.089382805
55	0xbd4acf2f	-0.049513992
56	0x3dc3b845	0.09556631
57	0xbe1d0d4b	-0.15337102
58	0xbd11e006	-0.035614036
59	0x39fbccf0	0.0004802714
60	0x3ed27a79	0.41109064
61	0x3b200f26	0.0024423092
62	0xbe382c1f	-0.17985581
63	0xbe12e8da	-0.14346638
64	0xbc4c2210	-0.012459293
65	0x3e0a1dce	0.13487932
66	0x3d9d8d9f	0.07693028
67	0xbdabfc8a	-0.083977774
68	0xbd938b5b	-0.07204314
69	0xbd254b9f	-0.04035532
70	0xbca01ae7	-0.019544078
71	0xbde7e6cb	-0.11323317
72	0xbe067bd1	-0.1313317
73	0xb9489ffa	-0.00019133082
74	0xbe0468c2	-0.12930587
75	0x3bcc4fcf	0.0062351
76	0x3cc2fdc2	0.023802642
77	0xbb96f6ed	-0.0046070726
78	0xbcada94b	-0.02119889
79	0xbd309aca	-0.04311637
80	0x3dbb346c	0.09140858
81	0xbe851fdd	-0.26000872
82	0xbc4ac794	-0.012376685
83	0xbd216be7	-0.039409544
84	0x3e072bbc	0.13200277
85	0x3e04cded	0.1296918
86	0xbd476044	-0.04867579
87	0xbe35956e	-0.17732784
88	0xbd3caf83	-0.04606582
89	0xbcaf2d02	-0.021383766
90	0x3e1973e4	0.14985615
91	0xbe0e43eb	-0.13893096
92	0x3d5fcf5a	0.054641105
93	0x3e6d2a2a	0.23160616
94	0xbc2611e7	-0.010136104
95	0xbcc9cb05	-0.02463294
96	0xbd4741e9	-0.04864684
97	0xbe32a443	-0.17445473
98	0xbce20e55	-0.027594725
99	0xbe1d906e	-0.15387127
100	0x3da5f078	0.081025064
101	0x3df416e0	0.119184256
102	0xbd844ba0	-0.06459737
103	0xbcaf4921	-0.021397175
104	0xbd9cfd33	-0.076654814
105	0x3d245916	0.04012402
106	0xbc8722f8	-0.016496167
107	0x3db43b04	0.08800319
108	0x3e36d7eb	0.17855804
109	0x3d226295	0.039644796
110	0xbea72ae4	-0.3264991
111	0x3e16ee8d	0.14739437
112	0xbd18f5f7	-0.037343945
113	0x3e044ffc	0.12921137
114	0x3e346bed	0.17619295
115	0x3c3c9b05	0.011511569
116	0xb9a5835a	-0.00031569117
117	0x3e13545c	0.1438765
118	0xbd2880ee	-0.041138582
119	0x3d7e20bc	0.062042937
120	0xbd665f9a	-0.056243517
121	0xbe28d5f8	-0.16487873
122	0xbd719fc4	-0.058990255
123	0xbd2676bc	-0.040640578
124	0x3caba692	0.02095345
125	0xbdbfaebb	-0.09359499
126	0x3d9dee44	0.07711461
127	0x3d920b64	0.07131079

arith.constant6 f4 [64]
0	0xbe66fbb3	-0.22556953
1	0xbe718f9c	-0.23589939
2	0xbefeb953	-0.49750766
3	0xbe8f168e	-0.27946895
4	0xbd9b1e4f	-0.0757414
5	0x3e178865	0.14798124
6	0x3cfd1e36	0.030898195
7	0xbd99e0d3	-0.07513585
8	0xbdef48c7	-0.11683803
9	0x3c0ad531	0.00847368
10	0x3d5c7ea9	0.05383173
11	0x3c2c9937	0.010534576
12	0xbcc77394	-0.024347104
13	0xbe28d3f9	-0.16487111
14	0xbe0f3f5e	-0.13989016
15	0x3dea6356	0.11444728
16	0x3e94c110	0.29053545
17	0xbd7f14e9	-0.0622758
18	0x3dc1710a	0.094453886
19	0xbe01306a	-0.12616125
20	0xbdd88414	-0.10572067
21	0xbd0ba3d1	-0.034091774
22	0xbd26e5a3	-0.040746342
23	0x3d2f9efb	0.042876225
24	0xbc9dc21b	-0.019257596
25	0x3e5cb435	0.21553119
26	0xbe3d11ac	-0.18463773
27	0xbd8ab85a	-0.067734435
28	0x3e45daab	0.19321696
29	0xbda0d31c	-0.07852766
30	0xbe0cc9d9	-0.13748874
31	0x3d6d1f29	0.057891045
32	0xbd6d9527	-0.05800357
33	0xbd4c8155	-0.049928028
34	0x3d5a2a7d	0.053263176
35	0x3e0f99fd	0.14023586
36	0xbc592ef6	-0.013255825
37	0x3d0a2a48	0.03373173
38	0xba90a308	-0.0011034915
39	0xbec1c2dd	-0.3784398
40	0x3dc3860b	0.09547051
41	0x3d43a4fb	0.04776476
42	0x3da84085	0.08215431
43	0x3dfecf93	0.124419354
44	0xbd39dd9b	-0.045377355
45	0xbe20b7f9	-0.1569518
46	0xbd90a4f0	-0.07062709
47	0xbed4ac6c	-0.41537797
48	0xbe26f61d	-0.16304822
49	0xbce3e674	-0.02781985
50	0xbeb0868c	-0.3447765
51	0x3e4318f8	0.19052494
52	0x3d9f70ae	0.07785164
53	0xbc9af7f7	-0.018917067
54	0x3df357aa	0.11881955
55	0xbbcd1e5a	-0.0062597217
56	0x3e712490	0.23549104
57	0xbe62caf7	-0.22147737
58	0x3d23363d	0.039846648
59	0xbe25ac4d	-0.16179009
60	0x3c6906bc	0.014222797
61	0xbdc64245	-0.09680609
62	0x3d60b8b7	0.054863658
63	0x3d858a85	0.06520561

arith.constant7 f4 [50]
0	0x3ebf512b	0.37366614
1	0x3ea85745	0.3287908
2	0xbd1daae8	-0.038493067
3	0x3f0214dc	0.5081308
4	0x3f11206c	0.56690097
5	0xbe00bb3f	-0.12571429
6	0x3ef669fa	0.4812773
7	0x3e0553d2	0.13020256
8	0x3dec3d03	0.115350746
9	0xbe345211	-0.17609431
10	0x3f8649a3	1.0491222
11	0x3f14e3c4	0.5816004
12	0x3e9f3d0f	0.31101272
13	0x3ea6c306	0.32570666
14	0x3eab0e38	0.33409286
15	0xbdacd918	-0.08439845
16	0x3ee78c86	0.45224398
17	0x3dbbc73f	0.091688626
18	0x3e8d61d3	0.27613696
19	0xbd974c62	-0.07387616
20	0xbf06d3be	-0.5266684
21	0xbd3a66d4	-0.04550822
22	0xbed89e3d	-0.42308226
23	0x3f2b59a6	0.6693367
24	0x3f012761	0.5045071
25	0x3e0108e9	0.12601055
26	0x3d0ccfc4	0.03437783
27	0xbeb6f828	-0.35736203
28	0x3ed5c944	0.41755116
29	0x3e2f8469	0.17140354
30	0x3e24fded	0.1611249
31	0xbd6c3672	-0.05766911
32	0xbe01eaa0	-0.12687159
33	0x3de19320	0.1101439
34	0xbf0e18c9	-0.5550657
35	0x3eb2eb9d	0.34945384
36	0x3ed27d9a	0.4111145
37	0x3dec8b4f	0.115500085
38	0x3e48ba66	0.19602355
39	0x3ed80563	0.4219161
40	0x3b48af9b	0.0030622247
41	0xbe92d189	-0.28675488
42	0xbdb2d02f	-0.08731114
43	0xbd63e7eb	-0.055641096
44	0x3dc055ff	0.093914025
45	0x3c082da9	0.0083116675
46	0x3e84575a	0.25847894
47	0xbf5a1ec0	-0.8520317
48	0xbec1da1e	-0.37861723
49	0xbf167078	-0.58765364

tfl.pseudo_qconst i1 [64, 3, 3, 32]
0	0xfb	-5
1	0x33	51
2	0xd6	-42
3	0xf0	-16
4	0xf5	-11
5	0x0b	11
6	0xee	-18
7	0x08	8
8	0x20	32
9	0x06	6
10	0x03	3
11	0x0f	15
12	0x01	1
13	0xdb	-37
14	0x18	24
15	0x0c	12
16	0x05	5
17	0xfe	-2
18	0x19	25
19	0x08	8
20	0xff	-1
21	0x14	20
22	0x08	8
23	0x18	24
24	0x17	23
25	0x20	32
26	0x0f	15
27	0x02	2
28	0x0e	14
29	0xfa	-6
30	0x1c	28
31	0x22	34
32	0x0d	13
33	0x27	39
34	0xda	-38
35	0xe7	-25
36	0xff	-1
37	0x0a	10
38	0xfa	-6
39	0xef	-17
40	0x13	19
41	0x03	3
42	0x04	4
43	0x08	8
44	0x16	22
45	0xfe	-2
46	0xc5	-59
47	0x07	7
48	0x0c	12
49	0xe5	-27
50	0x19	25
51	0x04	4
52	0xf3	-13
53	0xfd	-3
54	0x09	9
55	0x20	32
56	0x09	9
57	0x07	7
58	0x08	8
59	0xf3	-13
60	0xfc	-4
61	0xde	-34
62	0x18	24
63	0xee	-18
64	0x22	34
65	0xdc	-36
66	0xe7	-25
67	0xf2	-14
68	0x17	23
69	0x01	1
70	0x06	6
71	0xc4	-60
72	0x0a	10
73	0x09	9
74	0x03	3
75	0x02	2
76	0x22	34
77	0xff	-1
78	0xa1	-95
79	0xfb	-5
80	0x17	23
81	0xef	-17
82	0xf6	-10
83	0x09	9
84	0x08	8
85	0x0a	10
86	0x05	5
87	0x16	22
88	0xeb	-21
89	0x00	0
90	0x03	3
91	0x0a	10
92	0x14	20
93	0xf7	-9
94	0xfe	-2
95	0xce	-50
96	0xec	-20
97	0x0e	14
98	0xa4	-92
99	0xdf	-33
100	0xfd	-3
101	0x08	8
102	0xf4	-12
103	0x0b	11
104	0xff	-1
105	0xdf	-33
106	0x06	6
107	0xf3	-13
108	0xfe	-2
109	0x02	2
110	0x0e	14
111	0x08	8
112	0xfe	-2
113	0xfd	-3
114	0x19	25
115	0xf8	-8
116	0x05	5
117	0x0d	13
118	0xfa	-6
119	0x14	20
120	0x11	17
121	0xee	-18
122	0x08	8
123	0xe3	-29
124	0x19	25
125	0xe2	-30
126	0x13	19
127	0x18	24
128	0x06	6
129	0x17	23
130	0xd2	-46
131	0xfe	-2
132	0x0d	13
133	0xf6	-10
134	0x04	4
135	0xe2	-30
136	0xfc	-4
137	0xe8	-24
138	0x03	3
139	0xed	-19
140	0x17	23
141	0xf1	-15
142	0xff	-1
143	0x06	6
144	0xe7	-25
145	0xe2	-30
146	0x03	3
147	0x06	6
148	0xcf	-49
149	0xfb	-5
150	0xed	-19
151	0x0d	13
152	0xf0	-16
153	0xf4	-12
154	0xfd	-3
155	0x00	0
156	0xf4	-12
157	0xfa	-6
158	0x03	3
159	0xff	-1
160	0x09	9
161	0xd9	-39
162	0xa3	-93
163	0x0a	10
164	0x13	19
165	0x0c	12
166	0x08	8
167	0xf5	-11
168	0xff	-1
169	0x15	21
170	0x12	18
171	0x01	1
172	0x12	18
173	0x17	23
174	0xc0	-64
175	0xdf	-33
176	0xfb	-5
177	0x00	0
178	0xf0	-16
179	0xfd	-3
180	0x10	16
181	0xf9	-7
182	0xf1	-15
183	0x0b	11
184	0xef	-17
185	0x05	5
186	0xfd	-3
187	0x18	24
188	0x0b	11
189	0x1a	26
190	0xfd	-3
191	0xc5	-59
192	0xf7	-9
193	0x21	33
194	0xe4	-28
195	0xe7	-25
196	0xf6	-10
197	0xf9	-7
198	0xde	-34
199	0x9d	-99
200	0xed	-19
201	0xdf	-33
202	0x0c	12
203	0xab	-85
204	0xbc	-68
205	0xe0	-32
206	0xf8	-8
207	0xfb	-5
208	0xaa	-86
209	0x0f	15
210	0x17	23
211	0xfe	-2
212	0x04	4
213	0xbb	-69
214	0xef	-17
215	0xe9	-23
216	0xfa	-6
217	0xd4	-44
218	0x1c	28
219	0xe8	-24
220	0xfd	-3
221	0xe6	-26
222	0xee	-18
223	0x0b	11
224	0x18	24
225	0x07	7
226	0xe8	-24
227	0x20	32
228	0x06	6
229	0xef	-17
230	0x0c	12
231	0x1b	27
232	0xf7	-9
233	0x81	-127
234	0xfe	-2
235	0xa0	-96
236	0xec	-20
237	0xe3	-29
238	0xeb	-21
239	0xe5	-27
240	0xda	-38
241	0x17	23
242	0xfd	-3
243	0xe6	-26
244	0xdf	-33
245	0xcb	-53
246	0xe2	-30
247	0xee	-18
248	0x0b	11
249	0x09	9
250	0xe5	-27
251	0x22	34
252	0xe8	-24
253	0x13	19
254	0xdd	-35
255	0xfd	-3

tfl.pseudo_qconst1 i1 [50, 128]
0	0xf1	-15
1	0xa3	-93
2	0x12	18
3	0x0b	11
4	0x0d	13
5	0xc4	-60
6	0xf1	-15
7	0xe1	-31
8	0xdf	-33
9	0xf2	-14
10	0xd4	-44
11	0xba	-70
12	0xcb	-53
13	0xcc	-52
14	0x0c	12
15	0x09	9
16	0x81	-127
17	0x11	17
18	0x0d	13
19	0x10	16
20	0x15	21
21	0xf6	-10
22	0xed	-19
23	0xd7	-41
24	0x00	0
25	0xfa	-6
26	0xda	-38
27	0xc4	-60
28	0xd1	-47
29	0x07	7
30	0xed	-19
31	0xc5	-59
32	0x0e	14
33	0x05	5
34	0x02	2
35	0xee	-18
36	0x02	2
37	0xbf	-65
38	0xf9	-7
39	0xc2	-62
40	0xfb	-5
41	0xeb	-21
42	0xf8	-8
43	0x0c	12
44	0xfa	-6
45	0x08	8
46	0x13	19
47	0x09	9
48	0xde	-34
49	0x11	17
50	0x06	6
51	0xe0	-32
52	0xc7	-57
53	0x0c	12
54	0xdb	-37
55	0x08	8
56	0x8e	-114
57	0xdc	-36
58	0xf3	-13
59	0xe7	-25
60	0xf2	-14
61	0xca	-54
62	0xe0	-32
63	0xb0	-80
64	0x0c	12
65	0xc7	-57
66	0x0e	14
67	0xcc	-52
68	0xe3	-29
69	0x05	5
70	0xf0	-16
71	0x07	7
72	0x10	16
73	0xbf	-65
74	0xc3	-61
75	0xec	-20
76	0x04	4
77	0x0b	11
78	0xfc	-4
79	0x07	7
80	0xdb	-37
81	0xc3	-61
82	0xf4	-12
83	0x09	9
84	0xff	-1
85	0x0f	15
86	0xf0	-16
87	0xeb	-21
88	0x0b	11
89	0x0b	11
90	0xfd	-3
91	0xfc	-4
92	0x09	9
93	0xe8	-24
94	0xd9	-39
95	0x83	-125
96	0xf1	-15
97	0xbf	-65
98	0x00	0
99	0x0b	11
100	0xea	-22
101	0xfc	-4
102	0x15	21
103	0xf1	-15
104	0xd4	-44
105	0x12	18
106	0x0c	12
107	0xcb	-53
108	0xd1	-47
109	0xbf	-65
110	0xca	-54
111	0x11	17
112	0x09	9
113	0xe6	-26
114	0xc8	-56
115	0x07	7
116	0x0c	12
117	0x00	0
118	0x00	0
119	0xd5	-43
120	0xec	-20
121	0xff	-1
122	0xf1	-15
123	0x0a	10
124	0xea	-22
125	0xd8	-40
126	0x12	18
127	0x03	3
128	0x05	5
129	0xff	-1
130	0xa2	-94
131	0xc0	-64
132	0xef	-17
133	0xb2	-78
134	0xe3	-29
135	0x12	18
136	0x02	2
137	0x16	22
138	0xc8	-56
139	0xcc	-52
140	0x07	7
141	0xc8	-56
142	0xf9	-7
143	0xba	-70
144	0xfb	-5
145	0x9e	-98
146	0xc5	-59
147	0xc1	-63
148	0xfe	-2
149	0xfc	-4
150	0xcb	-53
151	0xdb	-37
152	0xeb	-21
153	0x00	0
154	0x05	5
155	0xe1	-31
156	0x19	25
157	0x94	-108
158	0xe0	-32
159	0xbc	-68
160	0xf6	-10
161	0x09	9
162	0xfe	-2
163	0x11	17
164	0xf3	-13
165	0xf8	-8
166	0x1a	26
167	0x0b	11
168	0xf4	-12
169	0xe4	-28
170	0xef	-17
171	0x13	19
172	0xf8	-8
173	0xcb	-53
174	0x18	24
175	0x09	9
176	0x0b	11
177	0xb6	-74
178	0xc2	-62
179	0xac	-84
180	0xdc	-36
181	0x0a	10
182	0x17	23
183	0xb2	-78
184	0xf3	-13
185	0xf7	-9
186	0xfa	-6
187	0xe1	-31
188	0x1c	28
189	0x05	5
190	0x00	0
191	0xe1	-31
192	0x0f	15
193	0x02	2
194	0xa2	-94
195	0xd5	-43
196	0x06	6
197	0xed	-19
198	0x08	8
199	0xd4	-44
200	0x00	0
201	0x96	-106
202	0xce	-50
203	0xc2	-62
204	0xe2	-30
205	0x0b	11
206	0xfe	-2
207	0xf8	-8
208	0xbb	-69
209	0xef	-17
210	0xfd	-3
211	0x00	0
212	0x0a	10
213	0x0d	13
214	0x0b	11
215	0x81	-127
216	0xfc	-4
217	0xf1	-15
218	0xec	-20
219	0xd0	-48
220	0xc5	-59
221	0x16	22
222	0x0d	13
223	0xdd	-35
224	0x10	16
225	0xf0	-16
226	0xe5	-27
227	0xba	-70
228	0xf0	-16
229	0x0c	12
230	0xe2	-30
231	0xf1	-15
232	0xa9	-87
233	0xf3	-13
234	0x16	22
235	0x10	16
236	0x1b	27
237	0x19	25
238	0x9e	-98
239	0xa1	-95
240	0x0d	13
241	0x11	17
242	0xba	-70
243	0xe6	-26
244	0x0e	14
245	0x0b	11
246	0xec	-20
247	0xf6	-10
248	0x0f	15
249	0xd2	-46
250	0xd8	-40
251	0xf1	-15
252	0xff	-1
253	0x13	19
254	0xfe	-2
255	0x98	-104

tfl.pseudo_qconst2 i1 [128, 1600]
0	0x19	25
1	0x31	49
2	0xfc	-4
3	0xf1	-15
4	0xc2	-62
5	0xb0	-80
6	0xf7	-9
7	0xb8	-72
8	0xbf	-65
9	0xf5	-11
10	0x82	-126
11	0x34	52
12	0xc1	-63
13	0xc4	-60
14	0xf9	-7
15	0x97	-105
16	0xb8	-72
17	0xbf	-65
18	0xa1	-95
19	0x10	16
20	0x23	35
21	0xff	-1
22	0x1c	28
23	0x01	1
24	0x0a	10
25	0xe5	-27
26	0xd3	-45
27	0x24	36
28	0x28	40
29	0x2c	44
30	0xe4	-28
31	0x2f	47
32	0xcb	-53
33	0x29	41
34	0x08	8
35	0x40	64
36	0xee	-18
37	0x34	52
38	0xc4	-60
39	0xa8	-88
40	0x07	7
41	0xbc	-68
42	0xb5	-75
43	0xe3	-29
44	0xa4	-92
45	0xd9	-39
46	0xab	-85
47	0xb5	-75
48	0x02	2
49	0x93	-109
50	0x0c	12
51	0x1f	31
52	0xf4	-12
53	0xd3	-45
54	0xf0	-16
55	0xd2	-46
56	0xdc	-36
57	0x3d	61
58	0xd7	-41
59	0xc2	-62
60	0xec	-20
61	0x33	51
62	0xda	-38
63	0xdb	-37
64	0x23	35
65	0xf8	-8
66	0xcf	-49
67	0x00	0
68	0xdb	-37
69	0xee	-18
70	0xaf	-81
71	0xd8	-40
72	0xed	-19
73	0xc0	-64
74	0x9a	-102
75	0x37	55
76	0x29	41
77	0xe2	-30
78	0x22	34
79	0x07	7
80	0xdf	-33
81	0xce	-50
82	0xc6	-58
83	0x3e	62
84	0xc1	-63
85	0xe5	-27
86	0xc8	-56
87	0xc5	-59
88	0xab	-85
89	0x16	22
90	0xa1	-95
91	0xfa	-6
92	0x9f	-97
93	0xb3	-77
94	0x15	21
95	0xc9	-55
96	0xe6	-26
97	0x2f	47
98	0x15	21
99	0xf1	-15
100	0x0d	13
101	0x22	34
102	0x2c	44
103	0xdf	-33
104	0xea	-22
105	0xd1	-47
106	0xd9	-39
107	0x18	24
108	0x1c	28
109	0x50	80
110	0x1e	30
111	0xd4	-44
112	0x1f	31
113	0xb6	-74
114	0xc2	-62
115	0xa8	-88
116	0x2d	45
117	0xbf	-65
118	0xc7	-57
119	0x01	1
120	0x2a	42
121	0x09	9
122	0xf7	-9
123	0xf0	-16
124	0xd1	-47
125	0xf0	-16
126	0x2f	47
127	0xdb	-37
128	0x21	33
129	0xe8	-24
130	0xc8	-56
131	0xc4	-60
132	0xf6	-10
133	0xa5	-91
134	0xfe	-2
135	0x16	22
136	0x00	0
137	0x2e	46
138	0x8e	-114
139	0x22	34
140	0xce	-50
141	0x31	49
142	0x38	56
143	0xf9	-7
144	0xc9	-55
145	0xde	-34
146	0xb6	-74
147	0x9b	-101
148	0x22	34
149	0xf1	-15
150	0xfe	-2
151	0xdb	-37
152	0x31	49
153	0xa6	-90
154	0x2c	44
155	0xc7	-57
156	0xfa	-6
157	0x32	50
158	0x36	54
159	0x04	4
160	0x23	35
161	0x07	7
162	0x4d	77
163	0xde	-34
164	0xd3	-45
165	0x0a	10
166	0xba	-70
167	0xe0	-32
168	0xba	-70
169	0x0d	13
170	0xc8	-56
171	0x9d	-99
172	0xed	-19
173	0x08	8
174	0xc4	-60
175	0x35	53
176	0xd3	-45
177	0xb8	-72
178	0x08	8
179	0x37	55
180	0xec	-20
181	0x28	40
182	0x01	1
183	0xc9	-55
184	0xc6	-58
185	0x32	50
186	0x07	7
187	0x30	48
188	0xab	-85
189	0xac	-84
190	0x25	37
191	0xb7	-73
192	0x15	21
193	0x26	38
194	0x2c	44
195	0xf5	-11
196	0xb1	-79
197	0xe8	-24
198	0xd3	-45
199	0x0d	13
200	0xb6	-74
201	0x02	2
202	0xa5	-91
203	0xeb	-21
204	0x2d	45
205	0x3c	60
206	0xd4	-44
207	0xdf	-33
208	0x96	-106
209	0xdd	-35
210	0x2c	44
211	0xc1	-63
212	0xc7	-57
213	0xf2	-14
214	0xd5	-43
215	0xcc	-52
216	0x08	8
217	0xed	-19
218	0xc2	-62
219	0xa4	-92
220	0xdb	-37
221	0x21	33
222	0x20	32
223	0xa2	-94
224	0xc2	-62
225	0xc9	-55
226	0xc7	-57
227	0x27	39
228	0xd1	-47
229	0xa0	-96
230	0xd9	-39
231	0xb2	-78
232	0x07	7
233	0x28	40
234	0x25	37
235	0x11	17
236	0xdd	-35
237	0x01	1
238	0xfa	-6
239	0xa7	-89
240	0x27	39
241	0x4a	74
242	0xbe	-66
243	0xbd	-67
244	0xf4	-12
245	0x2c	44
246	0xb3	-77
247	0xb7	-73
248	0xe4	-28
249	0xef	-17
250	0x27	39
251	0xcd	-51
252	0xdd	-35
253	0xdf	-33
254	0xc0	-64
255	0x02	2
